s1_development_environment/exercise_files/final_exercise/model.pth (torch, 378536 bytes, 8 tensors)

conv1.weight f4 [32, 1, 3, 3]
000000 1e 66 7a bd 3b 3b 64 3e 08 91 98 3c a5 8f 80 3d
       -0.061132543 0.2228822 0.018623844 0.06277398
000010 7c bf b8 3e 5d db 56 bd b6 1b ed 3e 2c 92 8c 3e
       0.3608359 -0.052455295 0.46310204 0.2745527
000020 31 d0 5c be 8d 56 c3 3e 39 55 63 3e 40 e5 67 bd
       -0.21563794 0.3815197 0.22200479 -0.056615114
000030 d2 4c 0a be 5c 06 7d 3d 82 e0 65 3e d9 89 b3 3e
       -0.13505867 0.061773643 0.22448924 0.35066107
000040 e3 d9 c6 3e 4b 6c 3f 3e 86 55 0d be 4b cb f8 3d
       0.3883811 0.18693654 -0.13802156 0.1214815
000050 5e e2 49 3e 9a a4 fd 3e dd 47 c9 3e d8 16 96 3e
       0.19715258 0.49539644 0.3931264 0.29314303
000060 dd d6 cf 3e 95 b4 db 3e 27 a6 85 3d 7e 4d ea 3e
       0.40593615 0.4291121 0.06525832 0.45762247
000070 9e 5c ea bd a2 33 aa be 21 ef 97 3e 7f 88 8a 3e
       -0.114434466 -0.33242518 0.29674628 0.27057263
000080 2c 84 bb be 7e 88 ef 3d b3 4f ed 3e f2 36 9d bd
       -0.36624277 0.11695956 0.46349868 -0.076764956
000090 01 15 ab 3d 1b 26 e4 3e 91 97 0c 3f 2c e0 84 bc
       0.083536156 0.44560322 0.5491877 -0.016220175
0000a0 72 67 bc 3e 54 8b 0e 3f db 42 43 3d a9 ef ac 3d
       0.36797673 0.5568135 0.04767118 0.08444149
0000b0 b2 d0 86 3e 32 8c 2f 3a 11 ec 94 be bd 9c 7e be
       0.26331097 0.0006696611 -0.29086354 -0.24864478
0000c0 d0 a3 c6 bd 13 a7 bd bc 8d fa f7 3e db 5d 45 3e
       -0.096992135 -0.023150956 0.48433343 0.19274084
0000d0 cb 07 bd 3d 87 66 c5 3e 78 2b 95 be e6 11 47 be
       0.09230002 0.38554785 -0.29134727 -0.19440421
0000e0 1a 18 88 be cd b8 0a 3c 38 92 9b be d0 c5 02 3e
       -0.26580888 0.0084669115 -0.30384994 0.12770772
0000f0 43 55 18 bd 4d 3e ff 3d 46 57 18 3f 17 7f b2 3d
       -0.037190687 0.12463055 0.5950817 0.08715647
000100 bf b5 36 bd 2c 95 62 3e de 07 f7 3c b7 5f 42 3e
       -0.04460692 0.22127217 0.030155119 0.18981825
000110 75 e1 02 3f 9e 00 cb 3e 56 c4 ad 3e c6 af 07 3f
       0.5112527 0.39648908 0.33938855 0.53002584
000120 4c c3 4e 3e e2 62 f2 3e 2a a4 cd 3e 42 8e 8f 3d
       0.20191687 0.47341067 0.4016431 0.070095554
000130 53 5b 8f 3e a0 f6 d7 3e 1f 04 7c 3e bf 04 03 be
       0.27999362 0.42180347 0.24610947 -0.12794779
000140 55 ba f1 3d 99 6e bb bd 9a 3e 68 bd a5 38 d0 3e
       0.11803118 -0.09151954 -0.056700327 0.40668216
000150 08 03 cc 3e ef 41 af 3d 15 75 ae 3e 8b d0 f5 3e
       0.39846063 0.08557498 0.34073702 0.48010668
000160 45 a0 30 bd b5 86 d1 3d 3e 0e 9a 3d f5 1e 0f 3e
       -0.043121595 0.102307715 0.07522248 0.13976653
000170 86 dc 04 3f 42 f8 0b be cf 55 bc 3e 32 b1 18 3f
       0.5189899 -0.13668922 0.36784217 0.5964538
000180 80 b9 d9 3d 48 bd 3c 3d ef af 03 3e 7a 55 19 3e
       0.106310844 0.04607895 0.12860082 0.14974013
000190 dd e7 f9 3e 31 cf 78 3e 66 4a 03 3b 13 c0 44 3e
       0.4880971 0.24297787 0.0020033359 0.19213895
0001a0 4f a9 20 3f 28 29 90 3e 2f b8 6c 3e c8 24 c4 3e
       0.62758344 0.281564 0.23117135 0.38309312
0001b0 c5 4c c2 3e 78 18 ee 3c e6 16 2c be 47 a7 b4 3e
       0.37949196 0.029064402 -0.1680561 0.35283872
0001c0 41 56 ca bd 95 d2 b7 3d 9f 6a 92 3e e7 ed f1 3e
       -0.09879733 0.08975712 0.2859697 0.47251818
0001d0 c0 70 f0 3e ef 96 38 be b6 35 b2 be 1c 5e be be
       0.4696102 -0.18026327 -0.34806603 -0.37181175
0001e0 71 ca bf 3e e6 8a a5 3e b2 0b 74 3d 49 ec f3 3b
       0.37459138 0.32332534 0.059581466 0.007443939
0001f0 f3 0a c4 3e b6 68 89 3d 84 99 3f 3c 8a 52 2b 3e
       0.38289604 0.06709425 0.011694316 0.16730705
000200 5e 6c d5 3e 48 64 49 3d c0 63 02 3f 93 a2 53 bd
       0.4168424 0.0491679 0.50933456 -0.051668715
000210 24 59 e3 3e 05 38 52 3e 6a 1b fd 3e 46 42 75 3e
       0.44403946 0.20529182 0.49434978 0.23951063
000220 7e d3 42 3e 47 92 94 3d d0 37 4b 3e 40 68 d8 3e
       0.1902599 0.07254463 0.1984551 0.42267036
000230 63 a1 85 be 76 c8 12 3e b8 84 2d be 88 c2 d2 be
       -0.2609969 0.14334282 -0.1694516 -0.4116404
000240 1d 88 4f 3e a4 77 86 3c 34 aa 84 bd 55 7e e5 3e
       0.20266767 0.016414471 -0.06477776 0.44822946
000250 04 73 f6 3e f5 87 11 3e 57 9c 7a be a5 0a 86 3e
       0.48134625 0.1421202 -0.24473701 0.26179996
000260 6c 60 09 3e 36 14 72 bd 73 27 26 be 20 81 77 be
       0.13415688 -0.059101306 -0.16225986 -0.24170351
000270 ab d6 85 be c7 ff 37 3d 25 58 d2 be dd 51 01 be
       -0.2614034 0.044921663 -0.41082874 -0.12628885
000280 f7 52 c5 be b7 ed 34 3e b7 f0 34 be ee ed c7 bd
       -0.3853986 0.17668806 -0.1766995 -0.09762178
000290 70 fb bb be fa a5 fb be f6 9e c7 be 2e b4 be bd
       -0.3671527 -0.49150068 -0.38988465 -0.0931171
0002a0 68 1a 12 3d b2 41 83 3e 00 a5 d3 3e f6 b4 44 be
       0.035669714 0.2563606 0.41336823 -0.19209656
0002b0 cc a7 86 be b6 78 ce be f0 bd c6 3e 96 e8 97 3c
       -0.26299894 -0.4032647 0.38816786 0.018543523
0002c0 70 6c e1 be c1 bf 2a 3e 94 0a e9 3e 1c 0d 04 be
       -0.44028044 0.16674711 0.45515883 -0.12895626
0002d0 26 c1 21 3e cc 41 a9 3e 8b e4 4f 3e 29 11 16 bd
       0.15796337 0.33058012 0.20302026 -0.03663746
0002e0 28 3e 23 3e aa fc 7e bc 12 71 76 be 74 b3 80 3e
       0.1594168 -0.0155631695 -0.2406657 0.25136912
0002f0 fe 35 a5 3e bb 37 bc 3c 73 b2 ae 3e c1 01 bd 3e
       0.32267755 0.022975793 0.3412052 0.369154
000300 10 a4 85 3e 40 87 8e bc 97 bb 06 3f 4a 48 97 3e
       0.26101732 -0.017398477 0.5262999 0.2954734
000310 32 10 ad 3e 12 a5 53 3d 8e 5b de 3d fe e4 0b 3e
       0.3380142 0.051671095 0.108573064 0.13661572
000320 a8 23 ec 3e 5e 2a 81 3e e4 96 ee 3e 59 d4 77 3c
       0.46120954 0.25227636 0.46599495 0.015126311
000330 7b 44 3b be 36 19 00 3f 7c 0e 1a 3f 71 b0 98 3e
       -0.18287842 0.5003847 0.6017835 0.29822114
000340 92 ba bb 3d 77 b3 8e 3e d3 88 fb 3c a8 eb 27 3e
       0.09166445 0.27871296 0.030704891 0.1639849
000350 17 43 01 3d 14 80 92 bc af 74 8e be f6 d6 34 be
       0.031558122 -0.017883338 -0.27823398 -0.17660126
000360 38 66 83 be 42 ba 94 be 75 53 2f 3c 35 18 c5 bd
       -0.25663924 -0.29048353 0.01070105 -0.09623758
000370 e8 c8 41 bd e8 82 d6 3e 8d 7f a9 3e 74 91 75 3e
       -0.04731074 0.4189675 0.33105126 0.23981267
000380 4d 5c f4 3e 2b d7 fa 3d 7b d1 98 3e b2 97 40 3e
       0.4772667 0.12248071 0.2984732 0.18807867
000390 da 54 d1 3e 1f 93 dd 3c 40 c7 58 3d 2e 72 1f be
       0.4088505 0.027047692 0.052924395 -0.155709
0003a0 77 f0 75 be bd de 9b be d5 98 66 3d ee 8a b9 3e
       -0.24017511 -0.30443373 0.056298096 0.36238807
0003b0 88 4d 93 3e 2e 97 5f 3e 33 01 ff 3d 82 ea 6e be
       0.2877009 0.21835014 0.124514006 -0.23331645
0003c0 01 94 0a be 7a e0 84 be 7c 6c 1e be 32 b2 41 be
       -0.13533022 -0.25952512 -0.15471071 -0.18915632
0003d0 af 05 75 3c 43 87 8e 3e aa e3 de 3e 54 96 63 be
       0.014954968 0.27837572 0.4353307 -0.22225314
0003e0 e3 4e 66 be b6 b3 f8 3e 5b e7 77 3e 92 e4 c0 bd
       -0.2249103 0.4857461 0.24209349 -0.09418596
0003f0 d0 05 bd bd dd c7 04 be 6c 72 ba be bb 79 d0 3e
       -0.09229624 -0.12966867 -0.36415422 0.40717873

conv1.bias f4 [32]
000000 86 4c 9c ba d8 7f 8d b9 25 24 d8 bd 77 4a 30 be
       -0.0011924661 -0.00026988867 -0.10553769 -0.17215906
000010 3d da 85 3d c8 81 cb b9 a8 b7 d9 b8 87 22 9a 3e
       0.06535766 -0.00038815872 -0.00010381575 0.30104467
000020 1c f9 8d 3e b9 84 c1 3d 6a b8 88 ba d5 f1 0f be
       0.27729118 0.09449143 -0.0010430936 -0.14057095
000030 17 73 88 b9 54 96 14 ba 72 8c 94 bd 36 3f ea 3b
       -0.0002602569 -0.00056681526 -0.0725335 0.0071486486
000040 34 4c 15 38 23 ae 83 3e 5d 45 88 3e 21 5e a0 3e
       3.5595338e-05 0.25718793 0.2661542 0.31321815
000050 c8 93 9a 3e 9c 8a 4d 3d 6e 83 42 be 76 dd f0 bd
       0.30190873 0.050181016 -0.18995449 -0.1176099
000060 21 90 36 b9 d7 f3 ce 3d 31 b2 f0 bd 3c af 5b ba
       -0.00017410565 0.101051025 -0.11752737 -0.0008380299
000070 13 33 16 be a6 2d ac 3e 01 a0 92 3e 43 ec 8a 3e
       -0.14667921 0.33628577 0.28637698 0.27133378

conv2.weight f4 [64, 32, 3, 3]
000000 6e aa 46 bc 92 e7 93 3d 66 a1 34 3d d6 a9 d1 3c
       -0.012125595 0.07221903 0.044099234 0.02559368
000010 33 5c df 3b 72 3b 40 3d f4 14 0a 3d db c0 17 bd
       0.006816411 0.04693169 0.03371139 -0.037049156
000020 90 54 9a 3d 7b d2 67 bb 7e 95 e9 b9 d5 a0 0f 3d
       0.0753566 -0.003537326 -0.00044552604 0.03506549
000030 58 c1 76 bc 2a bc 9e bc 11 11 4d 3a 61 12 43 3d
       -0.015060745 -0.019376833 0.00078226725 0.04762495
000040 ad df 78 3d 4f 41 20 3d 17 4d 5b bc d0 44 a0 3b
       0.06076019 0.039124783 -0.013385079 0.0048910156
000050 3a af c8 bc b4 da 88 3d 34 e3 4c 3c aa 1e 34 3d
       -0.024497617 0.06682339 0.012505341 0.043974556
000060 69 03 dc bc 32 f6 37 bc 80 ec aa 3d 00 28 2a 3c
       -0.026857095 -0.011228131 0.0834589 0.010385513
000070 b0 d5 8e 3d 2a 72 12 bd 04 18 9a 3d 4c 5c 82 3d
       0.069743514 -0.035753407 0.07524112 0.063652605
000080 99 e3 6a 3d d2 28 09 bd 69 9a 19 3d 44 94 eb 3d
       0.05734596 -0.033486195 0.037500773 0.11502889
000090 14 06 d9 bc 6f f4 25 3d 3b f0 31 bb 04 ba 73 3d
       -0.026492156 0.040516313 -0.0027151245 0.05950357
0000a0 be 3e 6f 3d 94 bc 2a 3c b4 41 3e 3d 10 7b 7a 3d
       0.058409445 0.010420937 0.046449378 0.061152518
0000b0 b6 f8 7c 3c 72 4d 85 3d af 48 23 3d 0b 13 71 bd
       0.015440157 0.06508912 0.03986424 -0.05885605
0000c0 e3 36 81 3d 2e 89 bd ba 27 db 80 bd 3c d2 f3 3c
       0.06309297 -0.0014460438 -0.062918 0.029763333
0000d0 fa fc f8 3a 90 1a 92 3d 59 27 57 bd fb 08 eb 3c
       0.0018996291 0.07133973 -0.05252776 0.028690806
0000e0 36 01 a8 3c 3c 2e 15 bc 92 84 4b bd 3d 7f 11 3d
       0.02050839 -0.009105261 -0.049686976 0.035521735
0000f0 0d 72 a1 39 e9 88 6f bd 25 8a 74 3c 29 63 35 3b
       0.00030793287 -0.058480177 0.014925514 0.0027677512
000100 ea 15 76 3b 68 88 f9 bc 7a 32 91 bb d6 e6 18 bd
       0.0037549683 -0.030460551 -0.004431066 -0.037329517
000110 3c ba 10 3d 99 37 c5 bc 65 3e 9e bc 18 e3 8c bc
       0.035333857 -0.024074363 -0.019316861 -0.01719813
000120 4e 5a 82 bd bb d2 4f 3d 43 d3 bd ba ed 77 a0 bc
       -0.063648805 0.050738078 -0.0014482517 -0.019588435
000130 80 2e 03 bc c6 cc d4 3c 80 6a 0e 3d 2a f8 f6 3c
       -0.008006692 0.02597655 0.034769535 0.03014763
000140 83 66 73 bd 2f c3 f5 3c db 3d 5b 3d a2 10 4f 3d
       -0.059423935 0.030000297 0.053525787 0.05055297
000150 fa 11 5e 3c a2 d4 15 3d ae 8d 67 bd 23 d0 cd bc
       0.013554091 0.036579736 -0.0565316 -0.025123661
000160 00 ac 36 bd e2 b4 4f 3d 4a 3b 16 3d ef ec 24 bd
       -0.044597626 0.050709613 0.036677636 -0.04026502
000170 36 e8 1d bc 91 7c 9d bc 63 4d 85 bb 95 67 5c bd
       -0.009637883 -0.019224437 -0.004068063 -0.05380972
000180 e8 b4 79 bc 46 23 fa bb bd fe 2d bd 4e 0c 05 3d
       -0.015240885 -0.0076335995 -0.042479265 0.032482438
000190 fc b3 04 3d 87 bd 4c 3d e7 4c b3 3c c4 5b ec 3c
       0.03239821 0.049985435 0.021887256 0.028852351
0001a0 04 a9 0c bd 48 e3 68 3d fc ed 64 3d 14 24 89 3d
       -0.034340873 0.056857377 0.055891022 0.066963345
0001b0 3d e9 2f 3d 39 dc 38 bd cc fe 69 bd 71 5d 64 3d
       0.042947043 -0.045131896 -0.05712776 0.055753175
0001c0 95 68 97 3d 60 d7 11 3d 75 99 26 3c 41 63 b5 3d
       0.07392994 0.03560579 0.010168423 0.08856822
0001d0 90 3d 9c 3d 92 44 ae 3c 19 fc 0e 3d da 67 af 3c
       0.076289296 0.021272931 0.034908388 0.021411825
0001e0 97 a4 c8 3c 2a a9 42 3c b8 22 8b 3d ee cb 73 bd
       0.024492545 0.011881152 0.067937315 -0.059520654
0001f0 bb b2 34 3c e2 9f d1 3d 7d 69 ca bb e4 97 b9 3c
       0.011028941 0.10235573 -0.006177126 0.022655435
000200 28 fb f0 bc 7b ea 28 bd 9a ec 2f 3d bf 4d 03 bd
       -0.029416636 -0.041239243 0.04295025 -0.032056566
000210 e1 33 eb bc 9d b5 8f bb 78 b1 84 3b 6c 71 48 bd
       -0.028711261 -0.0043856637 0.0040494762 -0.048936293
000220 58 ae 1e 3d e7 5e 0d bd 83 b3 25 3d ee 7e 09 bd
       0.038740486 -0.034514334 0.0404544 -0.033568315
000230 d9 42 ae ba b8 c2 b2 3c 35 6e 9e bd f9 7c 4f bd
       -0.0013295069 0.021821365 -0.07735864 -0.050656293
000240 ed d9 51 3d c7 25 db 3a f3 c2 37 bd 1b 78 ea bc
       0.05123322 0.0016719633 -0.044863652 -0.028621724
000250 33 f7 e1 bb 04 8b 04 3c f9 bb a2 b9 71 e2 a8 3d
       -0.0068959235 0.0080897845 -0.00031039098 0.08246315
000260 4b f9 d2 3d 5f 42 0e bd 5e dd 0d bd 2b 4f d1 bd
       0.10301455 -0.034731265 -0.03463494 -0.10220178
000270 2f 7f a9 bd 04 2f b1 bd 5a c9 d1 bc 4e ce 0b bd
       -0.082762115 -0.08651546 -0.025608707 -0.034132294
000280 ff d7 9a bd 76 79 22 be 0b 32 bc 3c e7 ad 40 3b
       -0.07560729 -0.15866646 0.022973081 0.002940053
000290 7d 52 3f bd f7 b9 58 bd 63 95 9d bd 3e 31 9c bd
       -0.046709526 -0.052911725 -0.07694509 -0.0762658
0002a0 8e 99 64 bd ad 36 fa bc f4 45 5c bd 08 d3 46 bc
       -0.055810504 -0.03054365 -0.05377765 -0.012135275
0002b0 06 90 1e bd c6 fd 92 3c b1 d6 29 bc 18 48 fd bb
       -0.03871157 0.017943274 -0.010366128 -0.0077295415
0002c0 7a 15 6f 3d eb 52 04 bd b7 a0 5e 3b a6 1d 48 3d
       0.05837009 -0.03230564 0.0033970305 0.0488564
0002d0 a3 be 81 bb 2b 46 de bb 64 59 91 bc dd 24 c8 bc
       -0.0039594932 -0.006783267 -0.01774282 -0.02443164
0002e0 e9 b9 03 3d 09 6f 53 bd 52 46 07 3d c5 65 71 3d
       0.03215972 -0.051619563 0.033026047 0.058934946
0002f0 3b a8 cf 3c a9 cb d5 3a a7 58 80 3d 77 92 21 bd
       0.025348773 0.0016311306 0.06266909 -0.03944632
000300 b1 6a 45 bd 60 1c b8 3b 80 63 dd bc ee 71 2b bd
       -0.048197452 0.005618617 -0.027024984 -0.0418567
000310 1a 39 f3 bb 30 51 de 3c 57 15 4b 3d f3 61 1d 3d
       -0.0074225785 0.027138323 0.049580898 0.03842349
000320 20 02 5e bc e7 ad df bb b4 5e 24 3d 6e 99 ce bc
       -0.013550311 -0.0068261507 0.04012938 -0.025219645
000330 40 07 37 3c 9a 54 31 bc 0b d1 a3 bc eb 70 01 3b
       0.011171162 -0.010823393 -0.01999714 0.0019751142
000340 7c 70 48 bc 02 5e 3d 3d 6c 47 c3 3b c8 e3 60 3c
       -0.01223385 0.04623223 0.005959442 0.013726182
000350 cc d2 e2 bc 02 a1 60 3c 38 cc 39 bd 4d a2 7b bd
       -0.027688406 0.013710262 -0.045360774 -0.06143408
000360 d6 48 8f 3c d1 6f 8c 3b 0a c2 99 bc 65 09 24 bd
       0.017490786 0.0042857905 -0.018769283 -0.04004802
000370 2b 50 69 bc 0d 4e 5c bc 90 f7 29 bd 2e 7c 65 bd
       -0.014240305 -0.013446343 -0.04149586 -0.05602663
000380 9c cf 85 3d 44 ed 71 bb e9 12 8d bd 33 a6 7d 3d
       0.06533739 -0.0036915103 -0.068883725 0.061926078
000390 94 57 3f 3c 26 07 04 3d 47 8f ce bc 90 46 a0 bc
       0.011678595 0.03223338 -0.025214804 -0.019564897
0003a0 ef e1 68 3c cb 03 b1 3c 3c e7 03 3c 4c 13 9d bc
       0.014214023 0.021608254 0.008050736 -0.01917424
0003b0 66 2f 2e 3d 8c c5 31 bc db 20 d9 bc 6d a8 05 bd
       0.04252567 -0.0108503215 -0.026504925 -0.032631326
0003c0 8a b3 ce bb 52 6a 2a bd 49 4a 31 3c bc 89 41 3d
       -0.006308024 -0.0416053 0.010820934 0.047250494
0003d0 ac 8d 88 3d 63 cf 90 bc a3 78 05 bd 50 f0 8d 3d
       0.06667647 -0.017677015 -0.03258575 0.069306016
0003e0 38 e9 82 3d aa 00 97 3c c7 d6 a0 3b e1 fd c4 3d
       0.06392139 0.018432934 0.004908416 0.09618736
0003f0 84 15 d6 3c a6 e5 89 bc 4a 7f dd bc 0a 93 f3 3c
       0.026133306 -0.016833138 -0.027038235 0.0297332

conv2.bias f4 [64]
000000 53 76 01 bd 0a 2f 95 bc 32 0f 3f bd 2b 67 96 bb
       -0.031606983 -0.018210907 -0.04664535 -0.0045899353
000010 f3 92 f3 bb 07 d5 5d bc 3a 1f 12 bd d8 74 c9 3d
       -0.007433289 -0.013539559 -0.03567431 0.09836739
000020 41 b8 87 bc 5d ac 93 b8 43 ff a7 3c 55 98 13 bd
       -0.016567351 -7.0416114e-05 0.02050746 -0.036033947
000030 e5 7b 85 bd ea 4b 41 3c 48 7e 9c 3b af 94 5c bd
       -0.06517772 0.0117978845 0.004775796 -0.053852733
000040 e2 a1 7c 3d aa 93 1b 3d 2a 7f 1c 3d 18 b5 ec 3d
       0.06167782 0.03798262 0.03820721 0.115579784
000050 68 7a 29 3c 69 dd 25 bd 41 4b 7e 3d e8 14 02 bd
       0.010344125 -0.040494356 0.062083486 -0.03175822
000060 ae f7 04 bd 8e 7f 84 bc 2b e9 af 3c 37 2b e1 3b
       -0.03246277 -0.016174104 0.021473488 0.0068716067
000070 51 2a 91 bd f6 ec 95 bb ed ef bb 3c fe 85 0f 3d
       -0.07088149 -0.004575367 0.022941554 0.035039894
000080 2d fd 6f bd 73 4e 3a 3c cf 37 94 bd 67 3b 47 bd
       -0.058591057 0.011371243 -0.07237207 -0.048640635
000090 3c 79 97 3c ec ce dc 3c 5c 6c 45 bd 9f 1f 36 bd
       0.018490426 0.026954137 -0.048199043 -0.04446375
0000a0 5f 22 90 bc 81 12 cb 3c fc 4d 92 3d 36 26 13 bd
       -0.017594514 0.024789097 0.071437806 -0.035925113
0000b0 a9 10 40 3c 9d e2 89 bd c2 27 11 3d 7a a8 9c bd
       0.011722722 -0.06732676 0.035438307 -0.07649322
0000c0 f5 e0 0a bd 02 d3 9e 3d 22 2e 25 3d 1e 8a 04 bd
       -0.033905942 0.0775509 0.0403272 -0.03235828
0000d0 12 11 10 bd 45 8b 20 3d 86 65 8d bd d0 77 80 bc
       -0.03517253 0.039195318 -0.0690413 -0.015682131
0000e0 da f4 10 bd ea 28 01 3b d2 d5 65 bd c2 00 24 bd
       -0.03538976 0.0019708225 -0.056112118 -0.040039785
0000f0 bf d7 27 3d 13 04 37 3c a4 48 18 bd 39 a0 16 bd
       0.040977236 0.011170405 -0.03717865 -0.036773894

conv3.weight f4 [128, 64, 3, 3]
000000 87 1f 32 3d ac 69 b4 3c cc e5 8a bb 75 86 e2 3c
       0.043487098 0.022023045 -0.0042388197 0.027652005
000010 c0 66 a2 3b eb ec 11 bd 40 75 a5 3b a9 79 41 bd
       0.0049560964 -0.035626333 0.0050493777 -0.047235165
000020 93 1d 49 bc 89 8f 06 3d 03 ff 61 bc ff 95 d1 3c
       -0.012275117 0.03285173 -0.01379371 0.025584219
000030 fd 16 8b 3c 32 cd 8e bb 13 94 0b 3d 4e a1 b1 bc
       0.016978735 -0.0043579573 0.03407676 -0.021683361
000040 c0 17 8f bc d1 7e 71 bc 49 06 df 3c 22 95 f3 bc
       -0.01746738 -0.014739708 0.027224677 -0.029734198
000050 47 cd 05 3c c0 68 13 3d e5 3e 37 bd c5 44 68 3d
       0.008166618 0.03598857 -0.044737715 0.05670621
000060 b2 2e 78 3b 70 69 09 3c 29 44 6f 3c 73 fb 02 3d
       0.003786963 0.008386955 0.014603653 0.031978082
000070 69 13 64 3c b7 0c c3 bc b0 8a 16 bd 88 6f ba bc
       0.013920643 -0.023809774 -0.036753356 -0.02275826
000080 32 9a 64 3c aa 5d 34 3d 59 14 32 bc ae 38 88 bd
       0.013952779 0.044034638 -0.010869109 -0.06651436
000090 b0 5f f9 3b 00 e6 8d bd 02 ad 24 bd 26 03 fe bc
       0.007610284 -0.06928635 -0.040204056 -0.03100736
0000a0 70 01 a7 bc 07 47 3e bd f9 54 b9 3c 31 5a 06 3d
       -0.020386428 -0.046454456 0.022623526 0.032800857
0000b0 f7 a7 c0 bc 77 76 74 bc d4 32 7c 3d 91 0e bf 3b
       -0.023517592 -0.014920822 0.06157191 0.005830594
0000c0 dd a1 25 bd 10 66 1a 3a d3 b6 2e bb 79 ef 6d 3d
       -0.040437568 0.0005889842 -0.0026659265 0.058089707
0000d0 a4 a4 83 bb fb 20 73 bd cd 5d 96 3b 20 8e 1f bd
       -0.0040174294 -0.059357625 0.0045888186 -0.0389539
0000e0 c0 32 d5 bc 8f ef 52 3c a8 e8 19 bd f5 07 1f bd
       -0.026025176 0.012874498 -0.037575394 -0.038825948
0000f0 93 1b 26 bd eb d6 86 3d e1 da 5b bb 10 22 7b bc
       -0.04055364 0.06583961 -0.003354721 -0.015327945
000100 1c 73 2c bd 90 06 66 bd 45 93 80 3c c3 8b 51 bc
       -0.042101964 -0.056158602 0.015695224 -0.012789669
000110 34 34 83 3a 81 99 03 3c e9 0f 1a 3d cb f0 8e 3c
       0.0010010065 0.008032204 0.03761283 0.017448803
000120 5e 1f 8a bc fc 32 40 bd 55 6a ec ba e6 5c 97 3b
       -0.01686066 -0.046923622 -0.001803706 0.0046192287
000130 70 69 05 3d fc 56 8a 3c 8e af 97 3c 88 3f 5b 3d
       0.032571256 0.01688718 0.018516328 0.053527385
000140 35 c7 0f bd b6 49 9e bc d1 fb fc 3a 5b 0c 5e 3a
       -0.035102088 -0.019322257 0.0019301121 0.0008470469
000150 b5 5d 23 3d 85 39 24 3d 5c 44 85 3b de 3b c9 bc
       0.039884288 0.040093917 0.004066987 -0.02456468
000160 52 0a 0d 3d 39 13 32 b9 e9 30 81 3c 11 e1 9e 3c
       0.03443367 -0.00016982564 0.015770392 0.01939443
000170 65 8a b8 bc a9 42 f6 bc c8 f9 1c bd 52 48 82 3c
       -0.02252693 -0.030061083 -0.038324147 0.015903626
000180 b0 86 69 3d 6e f7 48 3d 23 90 fc 3a 47 92 89 bc
       0.057013214 0.049064092 0.001926903 -0.016793383
000190 4f fd 97 3c 21 2d 73 3d db 31 61 3d 52 ec 93 bc
       0.018553404 0.05936921 0.054979187 -0.018057022
0001a0 dc 9d c5 3c 72 2c 27 bd fa 41 8a bc a2 30 46 bb
       0.024123125 -0.04081387 -0.016877163 -0.003024139
0001b0 47 80 74 3c a4 61 99 3b a7 e6 62 3d 1e 8a b2 3c
       0.014923162 0.004680829 0.05539575 0.021794375
0001c0 ce 68 23 3b 98 e6 4a 3b 71 73 48 bc b8 51 b5 bc
       0.0024934295 0.0030960198 -0.012234555 -0.022133693
0001d0 6d a1 e5 bc 82 6d 17 bd a8 e1 ef 3c b8 f6 04 bd
       -0.028031075 -0.03696967 0.029282406 -0.03246185
0001e0 70 21 cf bc 56 d0 e5 3b 51 f9 85 3c 0b 65 fe bb
       -0.025284499 0.007013361 0.016354235 -0.00776351
0001f0 96 a9 09 3d 53 5c 00 3d 8f e4 d7 bb 85 59 34 3c
       0.033608995 0.031338047 -0.0065885256 0.011007671
000200 63 06 53 3d a8 a4 d4 3c 54 5b 00 bd 7e d0 b3 3c
       0.051519763 0.02595742 -0.031337097 0.021950003
000210 f7 f5 b9 bc 22 61 38 bd 70 95 dc 3c 95 5d 45 bc
       -0.022700293 -0.045014508 0.026926726 -0.0120462375
000220 5b e5 12 3d 02 26 15 3d 1b 32 ef 3c 5d a0 fa bc
       0.03586326 0.0364132 0.029198697 -0.030594045
000230 3a 9a 40 3c cf 48 72 bc 71 9b 8f bc c7 c2 20 bd
       0.0117555205 -0.014787867 -0.017530175 -0.039248254
000240 7d da f8 bc 2d 65 06 bd 95 9c 6a bd c5 59 9c bb
       -0.03037762 -0.032811332 -0.057278235 -0.0047714435
000250 5b 21 13 bd be 64 30 3c b1 c8 97 bb 32 ad bd 3c
       -0.035920482 0.010766206 -0.0046320786 0.023153875
000260 59 f9 88 3d 79 5c e8 3c f2 8e 0a bd e5 3c 77 bc
       0.06688184 0.028364407 -0.03382773 -0.015090202
000270 80 38 36 bd 39 37 a2 3c 8f ea 03 3d e0 d7 78 bc
       -0.044487476 0.019801723 0.032206114 -0.015188187
000280 57 cc a0 3d 01 13 a8 3c 3c 4c 21 bc e3 c8 17 3d
       0.07851475 0.020516874 -0.009844836 0.037056815
000290 32 56 0d 39 5b 83 d4 bb cd 4b 20 bd a1 5a c4 3c
       0.00013478918 -0.0064853854 -0.03913479 0.023968996
0002a0 f7 99 61 3c a7 d1 e2 bc 6b 24 77 3c 5d c8 fc 3a
       0.013769618 -0.02768786 0.015084366 0.0019285787
0002b0 eb e4 b5 3c d2 e2 90 3c 82 30 ae 3c e8 2b 90 3b
       0.022203883 0.017686281 0.021263365 0.0043997653
0002c0 f7 5d 5e bc 35 9f cf 3c d9 3a 9b 3c 22 a0 05 bd
       -0.013572208 0.02534447 0.01894896 -0.032623418
0002d0 36 2f 5f 3d aa 9a b7 3b c2 e3 fd 3c e4 63 62 3d
       0.054488383 0.005603154 0.030992392 0.055271044
0002e0 94 33 b4 bc 1a b9 1c bd 1e 06 2d bd 3d 75 98 3c
       -0.02199725 -0.038262464 -0.042242162 0.018610591
0002f0 05 31 c6 3c ca d9 96 3b 03 82 27 3c 6c f3 b8 bc
       0.024193296 0.004603599 0.010223868 -0.02257701
000300 37 4e b6 3b d1 f6 8e 3c 5c 70 94 bc a7 78 1a bd
       0.005563523 0.017451676 -0.018119983 -0.03771272
000310 32 f4 13 bd 0f 4f 41 3d 11 1a 2e 3b 9f 70 dd bc
       -0.036121555 0.047194537 0.002656583 -0.027031241
000320 37 0f 08 3d 31 7c 0c bd f5 b0 21 3c 32 cb 00 3d
       0.033217635 -0.034298126 0.00986885 0.031443782
000330 ff db 0c 3d 46 8b 91 bc f2 fe 3d 3d b3 79 49 bc
       0.034389492 -0.017766606 0.046385713 -0.012297082
000340 24 a4 09 bb ad 25 bb bb ef c8 a7 3b 22 cf 20 bd
       -0.0021002376 -0.0057112784 0.0051203887 -0.039260037
000350 8f 5a 53 bd a5 32 09 bc f0 ee db 3c 93 19 65 bd
       -0.051600035 -0.008373891 0.026847333 -0.055932593
000360 0a 10 98 bc 32 89 a2 bc c6 cc 62 bc 0a 2b 3f bd
       -0.018562336 -0.01984081 -0.013842767 -0.046671905
000370 9b 54 95 bd c3 cb 68 bd f0 50 f9 3a 89 b3 06 3d
       -0.07291528 -0.056834947 0.0019021314 0.03288606
000380 9b 8c c7 bc 68 be c6 ba ad c2 01 bc 43 16 fa bc
       -0.024359038 -0.0015162947 -0.0079199495 -0.030528193
000390 f4 3d 3d 3b de 6b eb 3c 54 e2 c6 bc 70 80 83 3c
       0.0028876038 0.028737959 -0.024277844 0.016052455
0003a0 d8 78 8e 3c d0 c7 ea 3c cc e9 26 3d 6d e3 2e bd
       0.017391607 0.028659731 0.04075031 -0.04269736
0003b0 91 11 8a bd 6a b5 53 bd e4 89 81 bd 00 ac 70 bd
       -0.06741632 -0.05168668 -0.06325129 -0.058757782
0003c0 10 ca c8 3c 7d 8a ac 3c 32 43 4c 3d be 65 14 bd
       0.024510413 0.02106213 0.04986877 -0.03622984
0003d0 08 b7 27 bd e4 0f 97 bc 15 11 a0 3c 3d 12 cc 3c
       -0.040946037 -0.018440194 0.019539395 0.02491104
0003e0 58 51 1a 3c 01 48 bd 3c a6 ef 22 3c 4f 75 de bc
       0.009418808 0.023105623 0.009944832 -0.027155546
0003f0 b2 5c 3c 3d 79 66 6c 3a eb 3a 25 3d 4f c9 8e 3c
       0.04598684 0.0009017955 0.04033939 0.017429976

conv3.bias f4 [128]
000000 bd ef 1a bd d5 0a 29 bd d8 38 99 b9 47 b3 a7 3b
       -0.03782629 -0.041270096 -0.00029224786 0.005117807
000010 aa 89 19 bd 78 b2 1b 3b 24 46 cd bc b0 e8 0b 3d
       -0.037484802 0.0023757499 -0.02505786 0.034157455
000020 d1 9f 2b bd 63 1c c0 3c 85 b2 4c bd 24 c8 3b bd
       -0.04190046 0.023451036 -0.049974937 -0.045845166
000030 c8 75 c4 3b 75 d7 33 bb 9e 79 37 bc 42 18 08 3b
       0.005995486 -0.0027441655 -0.011198429 0.0020766412
000040 c1 c3 91 bc 1b 96 f0 bc c7 04 07 3d 1e 4e a6 bc
       -0.017793538 -0.02936845 0.03296354 -0.020300921
000050 5f ff b1 3b 64 13 d3 3c 03 1c 86 bc 54 f0 77 39
       0.005432054 0.025766082 -0.016370779 0.00023645285
000060 df 28 23 ba 56 cc 42 bb 54 e4 97 bb 7f 50 17 bc
       -0.0006224047 -0.0029723844 -0.004635373 -0.0092355
000070 57 14 01 bd b4 f6 23 bb 79 35 ee ba 66 d0 95 bc
       -0.03151354 -0.0025018873 -0.0018173895 -0.018287849
000080 8f c8 c8 bc bf 0e 03 bd e5 3e c7 bc 22 08 1b bd
       -0.024509696 -0.031996485 -0.024321983 -0.037849553
000090 8d 61 39 bd b2 4c d7 3c c5 7c 87 bc 05 60 f1 3b
       -0.045259047 0.026281688 -0.016538987 0.0073661827
0000a0 f6 6a a5 bc 51 5c c5 3c 2a 2b 11 bb 01 70 e2 3c
       -0.020192605 0.024091871 -0.0022150972 0.027641298
0000b0 53 34 f7 3c f9 07 f1 bc 80 1e 3b bd 55 08 75 bc
       0.030176317 -0.029422747 -0.045683384 -0.0149556
0000c0 a4 67 f5 bc 67 86 10 3d 91 a6 e0 3a 7e c5 e8 bc
       -0.029956646 0.035284426 0.0017139484 -0.028414484
0000d0 57 c1 c9 bb ac ec 41 bc 9f 66 1e 3b 81 09 c6 bb
       -0.006157081 -0.011836212 0.0024170054 -0.0060436134
0000e0 26 ff 60 bb fe f8 48 bd 29 65 95 3c b5 3d 11 bd
       -0.0034331768 -0.049065582 0.018236713 -0.03545924
0000f0 a2 18 46 bd 7c 53 0e bd c0 77 1c 3d b6 a1 ea 3c
       -0.048363335 -0.034747586 0.03820014 0.028641563
000100 a5 76 9b bc c0 b5 06 bd 62 f4 6a 3d 1b 7c 30 bc
       -0.018977473 -0.032888174 0.057361968 -0.010771777
000110 78 c8 12 bc d4 09 16 bd 69 e2 ca bb 16 76 ba 3c
       -0.008958928 -0.036630467 -0.006191541 0.022761386
000120 7b a5 f1 bb 5b c3 d0 bc 84 07 27 bd 7b a8 85 3c
       -0.007374463 -0.025483778 -0.04077865 0.01631569
000130 3a 45 d5 bc 5d a6 79 bb e9 76 c0 bc 3a d9 f9 3c
       -0.026033986 -0.0038093545 -0.0234942 0.03049909
000140 39 c8 0a 3d 74 b6 09 bd 80 39 5d 3c 42 1a a0 3c
       0.033882353 -0.033621266 0.013502479 0.01954377
000150 c4 22 1e bc b1 23 ea bc 68 d1 fa bc 9e 7d 42 bd
       -0.009651843 -0.028581472 -0.03061743 -0.04748308
000160 8b f8 b0 3c c7 dc 27 bd f9 06 ff 3c 90 f0 2b bc
       0.02160289 -0.040982034 0.031131255 -0.010494366
000170 03 f3 bc 3a 81 09 f8 3c 5b 42 dd 3c b6 92 d8 bc
       0.0014415685 0.03027797 0.02700918 -0.026437145
000180 d1 47 a1 3c a4 ee 9e bc d5 7e 03 3d 1b 27 bf ba
       0.019687565 -0.019400902 0.03210338 -0.0014583798
000190 64 d4 88 ba 8d ff 10 bd 66 bd 0f 3d 06 b6 ee 3b
       -0.0010439274 -0.035399962 0.035092734 0.0072848825
0001a0 da e8 02 3d 36 14 41 3a e4 5b d2 bc 23 9e 11 3d
       0.031960346 0.00073653774 -0.025678582 0.0355512
0001b0 02 ba e2 3b 00 05 55 bc f9 08 99 3c b0 78 9a bc
       0.0069191465 -0.01300168 0.018681036 -0.018856376
0001c0 72 78 23 bd 40 65 39 bc f3 33 c9 3b 26 ca 03 bd
       -0.039909787 -0.011315644 0.006140226 -0.032175206
0001d0 f3 34 01 bd 6a 37 ea bb 80 65 25 bd 34 44 ce bc
       -0.031544637 -0.007147719 -0.04038 -0.025179006
0001e0 19 f4 51 bd fa fe e8 3c 12 24 e8 3c c6 5b 92 bc
       -0.05125818 0.028441895 0.028337512 -0.017866027
0001f0 74 df 04 3c 44 28 ae 3c 18 b9 fd bc b3 99 08 bd
       0.008109916 0.021259435 -0.030972049 -0.033349704

fc1.weight f4 [10, 128]
000000 58 08 86 3d 59 de d4 bd 6f 8e b7 bd 54 3e 9b bd
       0.0654456 -0.10393972 -0.08962714 -0.075802475
000010 d5 75 93 3c 44 58 47 3d 04 15 04 be 74 b0 e5 3d
       0.018000523 0.04866816 -0.12898642 0.112152964
000020 18 d5 c0 3c a3 62 c2 3d ed 4b 84 3c 88 59 68 3d
       0.023539111 0.0949147 0.016149485 0.05672601
000030 44 04 7d 3a a1 c8 23 bd 3f bf 17 be 63 82 d6 bd
       0.000965182 -0.039986257 -0.14819048 -0.10474088
000040 42 8b 29 bd 00 6e 98 3d a4 5b e7 3d 16 8e 0c be
       -0.041392572 0.07442856 0.11296776 -0.13726076
000050 71 01 dd 3d 60 10 73 be 88 e4 09 bd 14 48 14 3d
       0.107912906 -0.23736715 -0.03366521 0.03620155
000060 f5 94 83 3d c6 3f 7b bc e9 8b 17 be c9 91 6b 3d
       0.06424896 -0.015335029 -0.14799465 0.05751208
000070 d6 84 8a bd 07 29 a7 3d 2a e1 a2 bd a6 16 99 3d
       -0.06763618 0.08162122 -0.07953103 0.07475023
000080 60 91 ae bd ce 72 f7 3c 87 0f f4 bd da 96 34 3d
       -0.08523822 0.03020611 -0.11917024 0.044089176
000090 ee c1 98 bd 4b fa a7 bd c8 6c 54 bd 96 d5 95 bc
       -0.07458864 -0.082020365 -0.051861554 -0.018290322
0000a0 ad a9 5e 3d 54 f8 b6 bd 98 1a a7 3d 37 2b d3 bd
       0.054361034 -0.089340836 0.08159369 -0.10310977
0000b0 6b 57 63 bd 77 ed 6d 3d c7 8f f4 bd 3c 88 51 be
       -0.05550329 0.058087792 -0.11941486 -0.20462126
0000c0 1b c2 b0 3d 27 dd 03 bd 9c ae fa bd 0a a1 df 3d
       0.08630773 -0.03219333 -0.12240335 0.10919388
0000d0 06 db 10 be 6a 41 8b 3d 99 eb e5 3b a3 cd 98 bd
       -0.14146051 0.06799586 0.007016611 -0.07461097
0000e0 05 c2 1c 3e 20 f8 ce bc ad 12 cc bc 66 bf d7 bd
       0.15308388 -0.0252648 -0.024911249 -0.10534553
0000f0 ef f4 72 bc 95 34 49 3d b1 4d 12 bd 1a 1a 6e 3d
       -0.0148289045 0.04912241 -0.035718624 0.05813036
000100 19 17 86 3c 36 ef f3 bb 87 86 1a bd 8e d1 04 3c
       0.016368436 -0.0074442877 -0.03772595 0.008106602
000110 df 71 6f bd 52 fc 4e bd 38 6a 10 3d ce 7b 8f 3d
       -0.058458205 -0.0505336 0.035257548 0.07006036
000120 c0 74 19 3c e6 90 64 bb ce 2a 49 be 45 a7 e5 bd
       0.009366214 -0.0034876405 -0.19645235 -0.11213545
000130 64 fa 1b bd 53 d5 65 be d7 b6 a4 3d 97 f6 91 bd
       -0.038080588 -0.22444658 0.080426864 -0.071271114
000140 b6 93 04 be d5 8b c2 bd ea ce 7a 3d 99 e8 cd bd
       -0.12946972 -0.09499327 0.061232485 -0.1005413
000150 82 9c bd 3d 76 30 74 bd 0d 38 99 3d 5e 40 0d 3e
       0.09258367 -0.05961653 0.07481394 0.13794085
000160 05 a8 ee bd e8 f7 49 bd 2e 0a 68 bd 5b eb 8a 3d
       -0.11653141 -0.049308687 -0.056650333 0.06783172
000170 1f 44 ea 3c b6 30 22 be 38 d0 d4 3d 60 32 3a 3c
       0.028596936 -0.15838894 0.10391277 0.011364549
000180 4b fb 9a 3c 60 46 dd 3c d2 13 5e 3d 92 7f 40 3d
       0.018918654 0.027011096 0.05421812 0.04699666
000190 ac 90 3f 3c 40 a7 65 bc f3 f9 1b 3e 2f e1 e8 3c
       0.011692207 -0.014016926 0.15232067 0.028427688
0001a0 54 07 41 be 8a 1f 54 3c 28 8a 92 3d a3 fd 8b 3d
       -0.18850452 0.012946973 0.071552575 0.06835487
0001b0 7e d0 6d 3d 09 6c 23 bd c2 03 de 3b 13 6c 84 3c
       0.05806016 -0.039897952 0.0067753503 0.016164815
0001c0 2d 3f ea bc 60 0f e5 bc 49 82 e8 bd bd bd 28 be
       -0.028594578 -0.027961433 -0.11352975 -0.1647863
0001d0 68 21 32 be 77 b1 20 3d 4f b7 82 3d 3d f2 02 be
       -0.17395556 0.039231744 0.063826196 -0.12787719
0001e0 e5 90 00 be 31 97 2e be 66 dd 6c 3d 6e 21 6e 3d
       -0.12555273 -0.17049862 0.05782833 0.05813735
0001f0 40 0c 10 be c2 49 7e 3d 31 ec 44 bd 71 13 ff bd
       -0.14067173 0.06208206 -0.048076812 -0.1245488
000200 96 0f 37 be e0 66 c6 bd fc 4c 36 3d f3 4b 89 bd
       -0.1787704 -0.096875906 0.04450701 -0.06703939
000210 dc 03 b2 3d 37 3a 79 be b2 a7 f1 bd 4b 13 a6 3d
       0.08692142 -0.24338613 -0.117995635 0.081091486
000220 9e b4 28 be 54 6a 82 bd 5b e3 f1 bd e7 26 dd bd
       -0.1647515 -0.06367937 -0.11810943 -0.10798436
000230 90 cf 83 bd a9 a9 a8 3d 22 7d 59 be 45 16 ee bd
       -0.06436074 0.08235485 -0.2123914 -0.11625341
000240 b1 99 8b 3d b3 33 bf bc 24 54 ca bd e1 4a a6 3d
       0.06816424 -0.023340082 -0.0987933 0.08119751
000250 43 5c 39 be 4d c9 37 3d 89 c9 e3 3d 2a 6b 9f 3c
       -0.18101601 0.04486971 0.11122424 0.01946028
000260 10 b7 eb bc e3 0e f0 3c 83 bd c1 3c 64 a6 e6 3c
       -0.028773814 0.029303974 0.023649937 0.028155513
000270 8d 6a 91 3d a9 f6 b4 3d c3 e1 11 3d 16 5a 7b bd
       0.07100401 0.08836109 0.035615694 -0.06136521
000280 33 67 5f bd 3e f3 90 3d a2 72 d0 bc 3d 1d 8c be
       -0.054541778 0.07077645 -0.025445286 -0.27366057
000290 30 de 52 be 5c d9 34 be 10 a7 84 be fa 68 94 bd
       -0.2059257 -0.17661041 -0.2590871 -0.07246585
0002a0 27 10 93 3d c3 07 c9 3c c5 fe 97 3d eb bd d5 3c
       0.07180815 0.024539834 0.0742164 0.026091537
0002b0 41 04 47 bd cf b5 9e 3d 9e 6b 26 be ac 23 0a bd
       -0.04858804 0.07749521 -0.1625199 -0.033725426
0002c0 33 04 cf 3d 08 8f dd 3d 31 1b ca bd 5a f1 c0 3d
       0.10108223 0.10818297 -0.098684676 0.09421034
0002d0 31 f3 a4 3d 64 f6 a5 3d d3 65 40 3d 6d 78 82 3b
       0.080541976 0.08103636 0.046972107 0.003981641
0002e0 07 1d 06 3e 7c 39 2d 3d e7 9b c9 bd a5 56 d4 3c
       0.1309701 0.04229115 -0.09844189 0.025920222
0002f0 eb 5b 09 be 4f e1 82 bc 84 a2 1e bb 3c f1 51 be
       -0.1341397 -0.015976576 -0.0024205754 -0.2050218
000300 b3 09 8a 3d 52 05 f1 bc 09 19 1d 3e 55 d3 0c bd
       0.06740131 -0.029421482 0.15341581 -0.03438123
000310 72 8c 04 bd b0 23 ea bd a9 cf 9c bd 49 29 34 bd
       -0.0323605 -0.11432588 -0.076567955 -0.043984685
000320 d2 99 3c bd e6 95 91 bc 3e 64 f0 bd 72 33 c2 3d
       -0.046045132 -0.017771672 -0.1173787 0.09482469
000330 b3 e9 2d 3e 0e 51 b4 3c ee 39 57 bd 78 56 d5 3d
       0.1698368 0.022011306 -0.05254548 0.10416883
000340 62 aa 6f bd 63 e5 a5 3d 49 5b b3 3d 2e 5e d8 3d
       -0.0585121 0.08100393 0.08757646 0.10564838
000350 85 bf 5e be b7 7d bb 3d b7 ec dd bd bc 93 19 be
       -0.21752746 0.091548376 -0.108361654 -0.14997762
000360 64 da c6 3d 8f 94 58 3d 67 0b f9 bc cd fa a7 3d
       0.097096235 0.05287605 -0.030400945 0.08202133
000370 a9 d8 33 be 6e 97 9c bd 68 a9 10 bd 97 bc 7a 3c
       -0.17563118 -0.076460704 -0.03531781 0.015303752
000380 d6 a2 0f be 86 be 82 3d 60 c4 36 be 03 45 2a 3b
       -0.1402696 0.06383996 -0.17848349 0.0025981076
000390 2e bf 97 3d 1f 93 42 bd d4 2d c7 bc 16 68 56 bd
       0.074095115 -0.047503587 -0.024313845 -0.052345358
0003a0 d4 44 5e 3c 05 ea c7 3d 7c d7 20 be 59 f4 0b be
       0.013566215 0.097614326 -0.15707201 -0.1366743
0003b0 ab 55 1a be 6c db f5 bd d1 86 9f 3d e6 13 af 3d
       -0.15071742 -0.12004742 0.07789386 0.08548717
0003c0 3e 66 85 3d 8d 0e 3b 3d 3b 98 b6 bc c2 34 43 bc
       0.06513642 0.045668174 -0.022289386 -0.011914434
0003d0 6c 62 02 be 70 81 c3 bc 6f a0 c8 3d 83 af 95 3d
       -0.12732857 -0.023865432 0.09796225 0.07308867
0003e0 d1 a1 84 3c 3a 06 c4 3d 20 08 1d bd 64 c5 2e 3d
       0.016190441 0.095715 -0.038337827 0.042668715
0003f0 59 20 ce 3c df b5 09 be bd 25 0c 3e 18 8c a2 3d
       0.025161909 -0.13448285 0.13686271 0.07936877

fc1.bias f4 [10]
000000 62 cc ac 3a 3a 8f d2 3c c3 f2 c0 bd 7a 69 a9 3d
       0.001318347 0.025703061 -0.09421303 0.08272071
000010 d6 74 b8 3d 3b d7 90 bc 65 c2 94 bd ab 3d b0 bd
       0.0900666 -0.017680755 -0.0726364 -0.08605512
000020 dd 4f 8b 3d e7 69 d3 bd
       0.06802342 -0.10322934
